model_pytorch.onnx (onnx, 411110 bytes, 11 tensors)

conv1.weight f4 [32, 1, 7, 7]
0.07763894 -0.05816508 0.07604631 0.006935303 -0.065551475 -0.057610106 0.09958981 0.10381794
0.123859845 0.059472423 0.0710054 -0.010510396 -0.04535397 -0.22732776 -0.5837913 0.09910317
-0.122319415 0.06555665 0.00023942089 -0.041019887 0.095586225 0.14375839 -0.014779188 -0.19607735
0.025163526 -0.6462321 0.05450698 -0.10669805 0.0007006337 0.017177157 0.006359764 -0.13320467
0.06725028 0.01981413 -0.5107668 -0.017852118 0.11341557 0.03267484 -0.15744069 -0.06578502
-0.07382229 0.12894976 0.052506596 0.04606767 0.093530424 0.048658803 -0.12591842 0.012400059
0.116332926 0.105885714 0.022631777 -0.1346239 0.14268659 -0.3379971 -0.07359443 -0.16372542
0.07638788 -0.1414682 -0.04432516 -0.12577687 0.12907478 0.039829377 0.057898533 0.08007337
-0.00034191212 0.04653494 0.013252489 0.12138023 -0.04223366 -0.15219963 -0.023766154 0.01995752
0.13733745 -0.11926932 -0.15487586 0.013199677 0.0059197643 -0.13344899 -0.28787416 0.11731642
-0.0062503815 0.00066256034 -0.027877705 -0.22026338 -0.0062906654 -0.07018569 -0.042202078 0.013816801
-0.03166328 -0.55802256 0.064587764 -0.8885186 0.15629974 0.031344295 0.14439358 0.102570094
0.13649063 -0.05643714 0.04614336 0.10596019 -0.082393326 -0.40431404 0.05345643 0.013947714
0.114583366 0.026860947 0.07432405 0.050887834 -0.112971224 -0.72518086 0.08843936 -0.30144945
-0.1561138 0.11923147 0.14462268 0.008099752 0.04472783 -0.21747692 0.06921392 -0.041846085
0.080959454 0.013331834 -0.10830198 0.03226063 0.035272345 0.12829952 0.09473624 0.07311117
-0.15718803 -0.0479886 -0.15958375 -0.21966699 -0.057544637 0.12152695 0.13568217 0.10493024
0.15695679 0.020348467 -0.64940137 0.088407256 0.08915438 -0.09540818 0.027555747 0.096761316
0.0017554918 -0.023320988 -0.818593 0.058900625 -0.13747373 0.07633584 0.045581594 0.044233676
-0.20420776 0.12955543 0.039117265 0.021645915 0.107564606 0.1455045 0.017241593 0.062995344
0.02568367 -0.26299012 -0.68486506 -0.169575 0.09192891 -0.1190839 -0.07278359 -0.008502764
-0.163031 0.11434605 0.0790272 0.0119922515 -0.17998408 -0.060217325 0.036898654 0.18356666
0.041657403 -0.06368831 0.04966055 -1.276755 0.040029902 0.05727281 -0.1432109 0.04495527
0.13634633 0.056291103 0.025903383 0.08564276 0.10033099 0.040104885 -0.118278176 -0.8056854
0.06314933 -0.35900962 -0.06287172 -0.12678966 -0.13180225 0.06681469 0.022267824 -0.106273286
-0.21251848 0.012923085 0.06242719 0.0153924655 0.00069534645 -0.03528557 0.031194132 0.051768832
0.04515853 -0.088983916 -0.39228752 0.1109336 -0.017551007 -0.5746233 -0.039284326 -0.058106598
0.1038379 0.03192628 -0.049774524 -0.017947821 0.07530384 0.08152291 -0.3673843 0.06904019
0.053859144 -0.011520811 0.14375113 -0.27259976 -0.17729422 0.073240474 -0.06699653 -0.21821703
-0.089618914 0.1401458 0.037285663 -0.20621867 0.06037188 -0.0427766 0.032454446 0.10576625
0.14019233 0.09742482 -0.8723575 0.14122877 -0.0064183497 0.033439957 0.13971846 0.054091517
0.027654879 0.14575945 -0.16262716 -0.13546827 0.10888697 -0.28170532 -0.06595943 -0.3381782
00000000: 2a01 9f3d 823e 6ebd 2bbe 9b3d 8a41 e33b
00000010: da3f 86bd 93f8 6bbd bef5 cb3d 809e d43d
00000020: 3baa fd3d 5b99 733d 476b 913d cc33 2cbc
00000030: 16c5 39bd 9cc8 68be 5973 15bf 9af6 ca3d
00000040: 9a82 fabd 9142 863d 0e0d 7b39 7804 28bd
00000050: b6c2 c33d 6635 133e 6824 72bc 80c8 48be
00000060: bd23 ce3c 786f 25bf b642 5f3d 8284 dabd
00000070: bbaa 373a 1cb7 8c3c 9165 d03b ce66 08be
00000080: 84ba 893d 3e51 a23c 9dc1 02bf 9b3e 92bc
00000090: 6c46 e83d 0ed6 053d 2238 21be 4cba 86bd
000000a0: 2430 97bd 680b 043e 2811 573d 74b1 3c3d
000000b0: e18c bf3d 744e 473d c2f0 00be 9e29 4b3c
000000c0: f53f ee3d 9cda d83d 4766 b93c d9da 09be
000000d0: 6f1c 123e f50d adbe adb8 96bd a3a7 27be
000000e0: 4071 9c3d 0add 10be 4d8e 35bd a7cb 00be
000000f0: 2e2c 043e 2124 233d 0327 6d3d 82fd a33d
00000100: ab42 b3b9 6c9b 3e3d f820 593c 3396 f83d
00000110: 34fd 2cbd 38da 1bbe 3db1 c2bc f47d a33c
00000120: 30a2 0c3e 7943 f4bd c797 1ebe 7543 583c
00000130: 95fa c13b daa6 08be 3e64 93be 9743 f03d
00000140: 00d0 ccbb acaf 2d3a c95f e4bc b98c 61be
00000150: ed21 cebb 84bd 8fbd 16dc 2cbd dd5f 623c
00000160: 5bb1 01bd 91da 0ebf 9746 843d f475 63bf
00000170: 0a0d 203e e062 003d e9db 133e 4510 d23d
00000180: 33c4 0b3e a12a 67bd d200 3d3d a801 d93d
00000190: d5bd a8bd 4002 cfbe 21f5 5a3d f484 643c
000001a0: afaa ea3d 7d0b dc3c 3537 983d c36f 503d
000001b0: 755d e7bd 74a5 39bf b21f b53d 9557 9abe
000001c0: 4cdc 1fbe a12f f43d f817 143e d2b4 043c
000001d0: 8734 373d 45b2 5ebe 07c0 8d3d cd66 2bbd
000001e0: 12ce a53d c46d 5a3c 6ecd ddbd b923 043d
000001f0: bc79 103d f360 033e 1305 c23d 4fbb 953d
00000200: e6f5 20be b28f 44bd ec69 23be 62f0 60be
00000210: edb3 6bbd 1fe3 f83d 44f0 0a3e aae5 d63d
00000220: 48b9 203e d4b1 a63c 2b3f 26bf dd0e b53d
00000230: 9296 b63d 5d65 c3bd 97bc e13c cc2a c63d
00000240: 8818 e63a a80b bfbc 508f 51bf c841 713d
00000250: eac5 0cbe f755 9c3d c4b3 3a3d 5f2e 353d
00000260: d71b 51be 2eaa 043e 6d39 203d c652 b13c
00000270: d54a dc3d 22ff 143e 3e3e 8d3c b403 813d
00000280: 8f66 d23c a4a6 86be 5153 2fbf 12a5 2dbe
00000290: 3945 bc3d 42e2 f3bd 900f 95bd 2d4f 0bbc
000002a0: 99f1 26be 432e ea3d 03d9 a13d 267b 443c
000002b0: bf4d 38be 71a6 76bd 0b23 173d e6f8 3b3e
000002c0: f4a0 2a3d 046f 82bd dc68 4b3d b56c a3bf
000002d0: 65f6 233d e596 6a3d e1a5 12be 0423 383d
000002e0: 5f9e 0b3e 8091 663d 5533 d43c 7965 af3d
000002f0: 567a cd3d 0545 243d d43b f2bd 6641 4ebf
00000300: 7054 813d 1cd0 b7be e3c2 80bd 26d5 01be
00000310: 2bf7 06be 24d6 883d 036b b63c cfa5 d9bd
00000320: 729e 59be 59bb 533c a7b3 7f3d ae30 7c3c
00000330: e947 363a 9a87 10bd d68a ff3c 8e0b 543d
00000340: 27f8 383d 333d b6bd e9d9 c8be 2831 e33d
00000350: 21c7 8fbc 831a 13bf 9ae8 20bd 2f01 6ebd
00000360: f7a8 d43d 22c5 023d 5fe0 4bbd 4f07 93bc
00000370: e638 9a3d 7cf5 a63d cc19 bcbe f164 8d3d
00000380: 689b 5c3d c9c1 3cbc 7f33 133e 3292 8bbe
00000390: 9e8c 35be 1aff 953d 7a35 89bd 4974 5fbe
000003a0: 1f8a b7bd 6182 0f3e dab8 183d fd2a 53be
000003b0: 8148 773d 8436 2fbd f4ee 043d fa9b d83d
000003c0: 948e 0f3e aa86 c73d d252 5fbf 469e 103e
000003d0: 0551 d2bb 56f8 083d 5b12 0f3e 118f 5d3d
000003e0: 7c8c e23c f741 153e bc87 26be 32b8 0abe
000003f0: 2200 df3d ae3b 90be bd15 87bd b125 adbe

conv1.bias f4 [32]
-0.24508275 0.27562436 0.07879507 -0.45373058 0.11287563 0.31191197 0.21637449 0.2748371
-0.39416602 0.20055972 0.24171385 0.0004048277 0.25057352 0.00021003418 -0.19164972 -0.0005126949
0.13306724 0.3119887 0.00044898127 0.32674634 -0.44549397 0.379176 0.23461257 -0.004731608
-0.36992952 0.10610027 0.22017722 0.31373987 0.328915 -0.1635403 0.30830997 -0.29647624
00000000: f9f6 7abe a31e 8d3e 4f5f a13d 604f e8be
00000010: 572b e73d edb2 9f3e 4691 5d3e 73b7 8c3e
00000020: 21d0 c9be 875f 4d3e d683 773e 0e3f d439
00000030: 2c4b 803e 9f3c 5c39 d33f 44be 5f66 06ba
00000040: c742 083e fcbc 9f3e 3f65 eb39 4c4b a73e
00000050: c917 e4be 5b23 c23e 473e 703e 9b0b 9bbb
00000060: 6767 bdbe 194b d93d 2376 613e 83a2 a03e
00000070: 8c67 a83e 1c77 27be ceda 9d3e bccb 97be

conv1_1.weight f4 [32, 32, 5, 5]
0.06681127 -0.061631143 0.006098348 0.02998117 -0.024443185 0.020653684 -0.055311088 0.0069527742
-0.067380205 -0.017253542 0.0439222 -0.02135358 0.026673293 0.06142521 0.055824947 -0.074939854
0.023465676 -0.015810093 -0.051403366 0.08498949 0.010685409 -0.026969865 -0.048997574 -0.010925747
-0.010343956 -0.0026903911 -0.05519426 -0.0027535327 0.01951913 -0.021354908 -0.046633895 -0.045799576
0.024276406 -0.015069985 -0.006901832 -0.04547925 -0.013085832 0.032205965 -0.008744303 -0.039713237
0.059976388 -0.023866445 -0.021577576 -0.030726798 -0.018343147 -0.03580729 0.034120616 -0.0036832315
0.010283564 0.02050646 0.038490508 -0.021213455 0.049488604 0.0029348803 -0.03754956 0.008954619
-0.015755499 -0.039871797 -0.037022416 -0.023226768 -0.055748288 -0.05484034 0.007494135 -0.031988688
-0.025614375 0.033306215 -0.014339285 -0.0031270697 0.027030868 0.057165995 -0.005754614 0.012972638
0.021075826 0.07171137 -0.0027504934 -0.064497806 -0.01205051 -0.03001943 -0.034334864 0.07388427
0.0038911358 0.016337125 0.046692993 -0.0042618536 0.02619191 -0.061362155 -0.048535228 -0.008211243
0.01651971 0.05308207 -0.043542072 -0.074870095 -0.031085704 0.0434959 -0.051077843 -0.084484175
-0.04846647 0.018064035 -0.00080448005 -0.095878124 0.04399785 0.037685104 0.024332179 0.05520169
0.053965524 -0.054440174 -0.00884365 0.051728662 0.006712651 -0.05361587 0.0008082419 0.0076439655
0.061062768 0.015762487 0.020055164 -0.035171006 -0.023318024 -0.00666284 0.013742306 -0.022964431
0.0030821732 0.057951532 -0.03781544 -0.059104394 -0.032681722 0.020609157 0.03784609 -0.0029192101
-0.018661324 -0.060334247 -0.007924232 -0.038799826 -0.004655848 0.0048363577 -0.020567406 0.070913814
-0.01547874 0.032765806 0.040634062 -0.06682786 -0.05553677 0.0014196456 0.0002119951 -0.008632821
0.00091821415 0.033446766 0.009584341 0.005029667 -0.0016759657 0.06912265 0.0021949 -0.037694536
0.011532888 -0.06544136 -0.01521597 0.026581563 -0.032287475 0.0083900625 -0.0064271665 0.025514415
0.057776365 0.0016148707 0.01307203 -0.034976445 -0.025413131 -0.0022502374 -0.038833182 -0.015188343
-0.036725357 -0.079374544 -0.101377144 0.013654765 -0.003560242 0.040764242 0.019098924 -0.03154563
0.040162392 0.004210258 0.072986856 0.017749297 -0.009002849 0.0100872675 -0.012873245 0.012331272
0.0021226832 -0.00896502 -0.024706103 -0.029065037 -0.033549868 0.033193823 0.01836769 0.03817552
-0.032624923 0.015173146 0.054288324 0.013570934 -0.023335965 0.015721818 0.0001874109 0.024030041
0.03784691 -0.039285917 0.018053228 0.0022203668 0.0030355556 0.016017094 0.021904813 -0.044795685
-0.06504811 0.02220687 -0.031104976 -0.031919714 -0.02435663 -0.04631262 0.016162377 -0.025896333
-0.0015236707 0.008056152 -0.027576828 -0.055732846 0.03728427 0.050687473 0.03223467 -0.014377567
0.020953186 0.040899023 0.028460478 -0.07935244 -0.00014990538 -0.029724255 0.013967972 -0.07885089
-0.058366656 -0.04722009 -0.044132456 0.039161693 0.020498447 -0.017084911 -0.024754243 -0.017334785
0.04150627 -0.026700392 -0.053615127 -0.01089077 0.01149079 -0.019696036 0.026811702 0.020799497
0.0680299 0.00867809 0.02060626 0.0090836175 0.01866682 -0.0069037527 -0.046447698 0.048259903
00000000: 59d4 883d f070 7cbd a7d4 c73b 129b f53c
00000010: 133d c8bc ea31 a93c e18d 62bd 19d4 e33b
00000020: a2fe 89bd 4d57 8dbc c4e7 333d b4ed aebc
00000030: f381 da3c 0099 7b3d b3a8 643d 117a 99bd
00000040: 173b c03c 2b84 81bc 568c 52bd f80e ae3d
00000050: db11 2f3c e8ef dcbc aeb1 48bd e801 33bc
00000060: b279 29bc 4651 30bb 6013 62bd 9d74 34bb
00000070: 95e6 9f3c 7df0 aebc 2f03 3fbd 5698 3bbd
00000080: 50df c63c 19e8 76bc c328 e2bb 7348 3abd
00000090: f565 56bc 67ea 033d 4444 0fbc 59aa 22bd
000000a0: cda9 753d 9083 c3bc 75c3 b0bc c4b6 fbbc
000000b0: 5e44 96bc aaaa 12bd 0fc2 0b3d 5f62 71bb
000000c0: 657c 283c 2afd a73c 39a8 1d3d d7c7 adbc
000000d0: 90b4 4a3d 1f57 403b 91cd 19bd 65b6 123c
000000e0: ad11 81bc 9c50 23bd d1a4 17bd 1046 bebc
000000f0: 5158 64bd 44a0 60bd 5c91 f53b 9206 03bd
00000100: 3dd5 d1bc 196c 083d 52ef 6abc 86ef 4cbb
00000110: d76f dd3c e426 6a3d 3391 bcbb 308b 543c
00000120: 36a7 ac3c 69dd 923d 9f41 34bb 6d17 84bd
00000130: 816f 45bc 4feb f5bc b7a2 0cbd a350 973d
00000140: 6d02 7f3b 6fd5 853c 2741 3f3d 05a7 8bbb
00000150: 6b90 d63c e256 7bbd e0cc 46bd 7388 06bc
00000160: 5854 873c 966c 593d 2c59 32bd 7e55 99bd
00000170: 72a7 febc c228 323d 0037 51bd 0a06 adbd
00000180: c784 46bd 07fb 933c bee3 52ba c05b c4bd
00000190: 1737 343d b25b 1a3d 4754 c73c 2b1b 623d
000001a0: f40a 5d3d a9fc 5ebd f5e4 10bc 6fe1 533d
000001b0: ccf5 db3b 519c 5bbd 32e0 533a 3b7a fa3b
000001c0: f41c 7a3d 5520 813c ba4a a43c 790f 10bd
000001d0: 7105 bfbc f453 dabb 6927 613c e71f bcbc
000001e0: 49fe 493b 965e 6d3d 5de4 1abd 7317 72bd
000001f0: 45dd 05bd 89d4 a83c 8004 1b3d 3850 3fbb
00000200: a2df 98bc 0b21 77bd a3d4 01bc 91ec 1ebd
00000210: 1590 98bb 4f7a 9e3b fa7c a8bc 433b 913d
00000220: 8b9a 7dbc 7035 063d e76f 263d 0cdd 88bd
00000230: 867a 63bd 6713 ba3a 004b 5e39 ad70 0dbc
00000240: 4fb4 703a 7aff 083d a407 1d3c e8cf a43b
00000250: 14ac dbba 2d90 8d3d 50d8 0f3b 9665 1abd
00000260: 70f4 3c3c 1f06 86bd 674c 79bc 94c1 d93c
00000270: df3f 04bd 7976 093c fb9a d2bb 9b03 d13c
00000280: e9a6 6c3d 12aa d33a 112c 563c 7643 0fbd
00000290: 332f d0bc b878 13bb 8b0f 1fbd 87d8 78bc
000002a0: 546d 16bd 1f8f a2bd d29e cfbd 3cb8 5f3c
000002b0: f352 69bb 68f8 263d 5975 9c3c fe35 01bd
000002c0: 5281 243d 34f6 893b 227a 953d f966 913c
000002d0: b080 13bc 1145 253c 4eea 52bc 1a09 4a3c
000002e0: b71c 0b3b 05e2 12bc 7464 cabc cd19 eebc
000002f0: 966b 09bd 3ff6 073d d677 963c ef5d 1c3d
00000300: b6a1 05bd c998 783c 6f5d 5e3d 9f58 5e3c
00000310: 112b bfbc 0bcb 803c bb83 4439 a6da c43c
00000320: 5d05 1b3d 45ea 20bd 5de4 933c 9383 113b
00000330: 2cf0 463b 4836 833c b971 b33c ae7b 37bd
00000340: f237 85bd 2feb b53c ddcf febc 3fbe 02bd
00000350: 8e87 c7bc 4db2 3dbd f666 843c 8c24 d4bc
00000360: e8b5 c7ba f3fd 033c cde8 e1bc 2048 64bd
00000370: 64b7 183d ab9d 4f3d 8008 043d e38f 6bbc
00000380: 04a6 ab3c bc85 273d f325 e93c 8883 a2bd
00000390: eb2f 1db9 4880 f3bc ecd9 643c 937c a1bd
000003a0: e011 6fbd da69 41bd 3cc4 34bd 0368 203d
000003b0: 5cec a73c a8f5 8bbc 69c9 cabc ae01 8ebc
000003c0: 7b02 2a3d c8ba dabc 899b 5bbd 336f 32bc
000003d0: de43 3c3c 9559 a1bc 37a4 db3c b563 aa3c
000003e0: 4353 8b3d 8c2e 0e3c 76ce a83c 74d3 143c
000003f0: 29eb 983c e038 e2bb f13f 3ebd 2dac 453d

conv1_1.bias f4 [32]
0.11118631 0.13168934 -0.12883604 0.2045449 0.21197674 -0.26776308 -0.05664325 -0.14719927
0.050554864 0.1500966 0.13571095 -0.103404425 0.19035658 0.1780252 0.10716832 0.042869773
-0.19635405 0.14317912 0.032397028 -0.1706059 0.21267332 0.15526584 0.091562636 0.107303135
0.13486627 -0.22609664 0.16725317 0.09041364 0.19212398 -0.022413772 -0.045743458 0.18143371
00000000: a6b5 e33d 92d9 063e 98ed 03be 3874 513e
00000010: 6e10 593e 3e18 89be c102 68bd 68bb 16be
00000020: 9e12 4f3d ecb2 193e d0f7 0a3e b3c5 d3bd
00000030: d6ec 423e 3d4c 363e 107b db3d 3798 2f3d
00000040: 0911 49be 8c9d 123e bfb2 043d 50b3 2ebe
00000050: 09c7 593e 02fe 1e3e 3185 bb3d bfc1 db3d
00000060: 621a 0a3e e185 67be 6a44 2b3e c92a b93d
00000070: 26bc 443e 169d b7bc 7e5d 3bbd c2c9 393e

conv2.weight f4 [64, 32, 3, 3]
-0.008696235 0.00548847 0.032198388 0.053408325 0.03258081 0.027432553 0.041677367 0.04360204
-0.003960449 -0.013409719 0.0069114966 0.07295342 0.03763 0.02741161 0.045151148 0.020610346
-0.023744758 0.02147975 -0.10551761 0.0075709163 -0.015117187 -0.028243093 -0.06621254 0.014581304
-0.036597997 0.04122595 0.03985085 -0.02402053 0.032004457 0.026031805 -0.03343566 0.06412048
0.0128818005 -0.056046546 -0.025399031 -0.090506434 0.024137449 0.025315115 -0.053132575 -0.037623916
0.05839609 -0.021780346 0.052250896 -0.028911766 -0.024588486 -0.07119613 0.049644604 0.0040722406
0.012820927 -0.041399676 0.0634568 -0.02060674 -0.059554555 0.032568987 -0.047834724 -0.1286207
-0.03587356 -0.011746162 -0.078805484 -0.05047853 -0.10923022 -0.045857612 -0.009019753 0.0034041984
0.0052922866 0.045524392 -0.017332714 0.008197643 -0.03785671 -0.0994538 0.0069542173 0.0022997465
-0.026056781 -0.07317083 0.006050051 0.056752376 -0.028110169 0.029022755 0.06636296 -0.042454883
-0.099969916 -0.032460436 0.021241402 0.060939696 -0.072145596 -0.039309073 -0.0137765445 -0.018290292
0.039917756 0.015579649 -0.036833674 0.019663695 0.027069721 0.04218003 -0.025555464 0.048247073
-0.0113703385 0.04305678 0.051515747 0.0019925337 -0.109406464 -0.08222687 0.026125792 0.04696022
-0.09311093 0.02581892 -0.024187746 -0.05504116 -0.0026543876 0.06432701 -0.04072507 0.031029789
-0.0011219772 0.07076321 -0.0029313082 0.048202783 -0.022273881 0.020408457 -0.04555055 -0.03083382
-0.014830999 0.04145626 -0.039555732 -0.0096120015 -0.053719252 -0.052298106 0.010147209 -0.011112527
-0.044970576 0.050968073 -0.0019903232 0.020962946 -0.01750364 0.0054141222 0.041757785 0.038672574
0.015413662 0.054459233 0.01294581 -0.024001187 -0.049500257 -0.009094971 0.05361485 -0.069824524
-0.064698 -0.010994628 0.019856015 0.10842122 0.015135628 0.007870293 -0.031810362 0.035547845
0.010044042 0.0018399217 0.03275305 -0.05878188 0.04181569 -0.04905081 -0.02924488 0.029563315
-0.02854878 -0.037649136 -0.02358228 0.046732564 0.045063075 -0.024271084 -0.011159938 -0.07070334
0.055474814 -0.052595437 0.03601144 0.05673781 -0.1260249 0.051896036 -0.077973895 0.008891512
-0.07683719 -0.0037703544 -0.100205004 0.0111183245 0.008055878 -0.04976877 0.03725856 -0.016290054
0.041406132 0.07322267 -0.009093665 0.0643236 0.027441602 -0.01835618 -0.0028501856 0.026892466
0.043817732 0.023065388 0.018128168 0.0339282 -0.010539711 -0.030846165 0.05178463 -0.073579
-0.04285559 -0.06854339 -0.04001224 -0.037217263 0.05831147 -0.004498704 -0.06170643 0.06813134
0.03352576 -0.033137124 0.015789118 0.026931902 -0.015204444 0.0063590705 0.07275646 0.054603852
-0.04937909 0.041458774 0.048990473 0.02283979 -0.027567066 0.024736261 0.050483465 -0.059699148
-0.005480528 -0.03066228 0.043567203 -0.038165025 0.014314135 0.033523835 -0.0037464565 0.065344244
-0.102422 -0.058728598 0.0021371967 -0.053010188 0.026656682 0.05261226 -0.08153275 0.03542173
-0.04723874 0.034429576 0.025184814 -0.012118146 -0.021620901 -0.036812175 -0.0043355837 0.032774277
0.0077363336 0.0047274525 0.019505508 0.05180618 -0.076964244 0.029645657 -0.039960753 -0.07754449
00000000: a77a 0ebc a0d8 b33b 75e2 033d b0c2 5a3d
00000010: 7573 053d 3cba e03c e3b5 2a3d 0d98 323d
00000020: a7c6 81bb 70b4 5bbc d679 e23b 9a68 953d
00000030: ea21 1a3d 508e e03c 69f0 383d 07d7 a83c
00000040: 5e84 c2bc 4df6 af3c 9e19 d8bd 7315 f83b
00000050: 14ae 77bc 0f5e e7bc 719a 87bd 6ce6 6e3c
00000060: c8e7 15bd 8bdc 283d a53a 233d b4c6 c4bc
00000070: 1b17 033d a740 d53c d5f3 08bd 9951 833d
00000080: 300e 533c 1091 65bd a111 d0bc 705b b9bd
00000090: e6bb c53c a561 cf3c 8ba1 59bd 891b 1abd
000000a0: bd30 6f3d b26c b2bc 0905 563d 5ed8 ecbc
000000b0: cb6d c9bc 47cf 91bd 2458 4b3d 6e70 853b
000000c0: de0e 523c b592 29bd a4f5 813d 77cf a8bc
000000d0: 7aef 73bd 0f67 053d 58ee 43bd 25b5 03be
000000e0: 27f0 12bd f972 40bc c564 a1bd 93c2 4ebd
000000f0: 18b4 dfbd 31d5 3bbd 96c7 13bc f918 5f3b
00000100: eb6a ad3b c977 3a3d 56fd 8dbc 684f 063c
00000110: a30f 1bbd 6fae cbbd 34e0 e33b 58b7 163b
00000120: 0875 d5bc 97da 95bd 823f c63b 2e75 683d
00000130: 4c47 e6bc 21c1 ed3c 4ee9 873d 2ce5 2dbd
00000140: 07bd ccbd 3cf5 04bd 7302 ae3c e79b 793d
00000150: 12c1 93bd 8d02 21bd 04b7 61bc 86d5 95bc
00000160: cd80 233d c941 7f3c e8de 16bd c215 a13c
00000170: 52c1 dd3c f8c4 2c3d b159 d1bc b99e 453d
00000180: a84a 3abc 4e5c 303d 2d02 533d 2b95 023b
00000190: 7f10 e0bd 9066 a8bd c205 d63c 5c59 403d
000001a0: f1b0 bebd 3382 d33c 6125 c6bc d772 61bd
000001b0: 3cf5 2dbb e1bd 833d 55cf 26bd 2f32 fe3c
000001c0: 4f0f 93ba 4dec 903d 311b 40bb 4870 453d
000001d0: b777 b6bc a32f a73c 3793 3abd 3597 fcbc
000001e0: b8fd 72bc 0ace 293d 3105 22bd a87b 1dbc
000001f0: b808 5cbd 8a36 56bd 7b40 263c 5111 36bc
00000200: 1133 38bd e6c3 503d 1570 02bb 7cba ab3c
00000210: cb63 8fbc f368 b13b 360a 2b3d 2267 1e3d
00000220: 9689 7c3c a510 5f3d aa1a 543c 239e c4bc
00000230: c8c0 4abd 1303 15bc 3f9b 5b3d 2900 8fbd
00000240: 6380 84bd d022 34bc 15a9 a23c f20b de3d
00000250: 6dfb 773c 67f2 003c 954b 02bd 9e9a 113d
00000260: c48f 243c 8729 f13a 1028 063d 45c5 70bd
00000270: ee46 2b3d 81e9 48bd f592 efbc c42e f23c
00000280: 22df e9bc fb35 1abd a02f c1bc a56a 3f3d
00000290: 0f94 383d 27d4 c6bc 2cd8 36bc eacc 90bd
000002a0: 8f39 633d 506e 57bd bb80 133d e865 683d
000002b0: ac0c 01be f090 543d c7b0 9fbd b4ad 113c
000002c0: d15c 9dbd 0d18 77bb 4838 cdbd a229 363c
000002d0: cdfc 033c 56da 4bbd 6f9c 183d b872 85bc
000002e0: 7a99 293d c4f5 953d 98fd 14bc 17bc 833d
000002f0: 36cd e03c b35f 96bc 2eca 3abb 974d dc3c
00000300: 397a 333d a0f3 bc3c 8681 943c 4cf8 0a3d
00000310: c1ae 2cbc 19b1 fcbc 1f1c 543d 96b0 96bd
00000320: 5889 2fbd 7a60 8cbd e0e3 23bd 2171 18bd
00000330: 02d8 6e3d dd69 93bb e2bf 7cbd 7288 8b3d
00000340: 4f52 093d cbba 07bd 2e58 813c 4ba0 dc3c
00000350: 0f1c 79bc c05f d03b 5701 953d 4aa8 5f3d
00000360: bb41 4abd add0 293d 3caa 483d 831a bb3c
00000370: 54d4 e1bc b3a3 ca3c c0c7 4e3d 1887 74bd
00000380: 0096 b3bb 762f fbbc 8673 323d ee52 1cbd
00000390: d585 6a3c 4a50 093d 1c87 75bb 34d3 853d
000003a0: a0c2 d1bd 668d 70bd 3610 0c3b 3621 59bd
000003b0: 1d5f da3c f47f 573d a4fa a6bd 6016 113d
000003c0: 697d 41bd 0706 0d3d 6250 ce3c 308b 46bc
000003d0: 511e b1bc 5dc8 16bd 8311 8ebb 523e 063d
000003e0: 1281 fd3b bfe8 9a3b 04ca 9f3c b832 543d
000003f0: 6e9f 9dbd 73db f23c e3ad 23bd a5cf 9ebd

conv2.bias f4 [64]
0.11048997 0.11286726 0.09088433 0.17938924 0.004931329 0.1021854 0.112349086 0.08848681
0.19040863 -0.02607729 -0.008322519 0.1418663 0.13661282 -0.025925685 0.18367514 -0.14583328
0.114115626 0.14795631 -0.1394689 0.20033991 0.12745893 0.06678134 0.05810068 0.1907505
0.2389568 -0.08037326 0.21471615 0.095782965 -0.082980335 0.043547023 0.042506654 0.12535167
0.15640217 0.1868066 0.018381763 0.018440459 0.2103717 0.14484768 -0.034990933 0.033894848
0.097075425 0.14731447 -0.08575874 0.14371313 0.10883103 0.1284732 -0.19878714 0.15521295
-0.07480185 0.11831075 -0.052127577 0.13985176 0.20331855 -0.12741062 0.11723191 0.13679554
-0.020881424 0.11072535 0.19424847 0.1395504 0.21163857 0.18857947 0.10316912 0.1513379
00000000: 9148 e23d f326 e73d 9021 ba3d d0b1 373e
00000010: fc96 a13b 9446 d13d 4717 e63d 9338 b53d
00000020: 7bfa 423e 0aa0 d5bc 2d5b 08bc 6645 113e
00000030: 3be4 0b3e 1a62 d4bc 5615 3c3e 5255 15be
00000040: 74b5 e93d dc81 173e efd0 0ebe e825 4d3e
00000050: 9884 023e a8c4 883d fbfa 6d3d 1954 433e
00000060: 17b1 743e bc9a a4bd 8dde 5b3e dc29 c43d
00000070: 98f1 a9bd 5d5e 323d 751b 2e3d 305c 003e
00000080: e427 203e 3b4a 3f3e 5a95 963c 7210 973c
00000090: ae6b 573e f352 143e a752 0fbd 53d5 0a3d
000000a0: 7bcf c63d 9bd9 163e 47a2 afbd 8929 133e
000000b0: cee2 de3d 7b8e 033e db8e 4bbe 25f0 1e3e
000000c0: b631 99bd e84c f23d ba83 55bd 4d35 0f3e
000000d0: bd32 503e ee77 02be 4917 f03d 2114 0c3e
000000e0: 850f abbc f9c3 e23d 12e9 463e 4de6 0e3e
000000f0: c8b7 583e fa1a 413e 554a d33d 53f8 1a3e

fc1.weight f4 [64, 768]
-0.019405799 -0.0106201535 0.00939348 0.039183345 0.0017202784 -0.012956158 -0.025434135 0.030311618
0.019214625 0.03399544 0.025446715 0.04849107 0.01714235 -0.048623834 -0.059478104 0.04489584
0.01866673 -0.14297754 0.13336393 0.049996573 -0.003082947 -0.0043234783 0.0852231 0.0028176736
0.008280032 0.017002823 -0.0020815723 0.0021204213 0.08788031 -0.010297834 -0.13472207 0.0643091
0.090643466 0.046872225 -0.040868614 0.041695908 -0.009908151 -0.045152377 0.0022718762 -0.013052015
0.018837158 0.02536848 0.02603324 -0.14231361 0.03121523 0.019205041 -0.098802656 0.009026918
0.018199913 0.03730256 -0.020615177 0.046609808 0.009152829 -0.002772902 -0.033590734 0.019732364
0.04611322 -0.009698088 -0.003449023 -0.04445175 0.024624528 0.036088694 0.018113215 -0.06356943
0.0008322357 0.03581472 0.0043236157 -0.011361534 0.07550495 0.00095507514 -0.19690752 -0.010534983
0.03898396 -0.040176205 -0.19785249 0.059054594 -0.11254717 0.0024341438 0.027042303 -0.0064670723
-0.08112892 0.07106585 0.02160946 0.019828225 0.022440424 -0.014190462 -0.06963699 0.03959491
0.027563656 -0.14603542 0.070339404 -0.06370552 0.006620216 -0.01964763 0.018521577 0.0097719915
0.07298102 -0.13508284 -0.00073227927 0.0025396778 0.038346063 0.2020383 -0.15400633 0.0072024814
-0.108132884 0.05966448 0.025871186 -0.0050975657 -0.1253852 0.009994053 -0.21524511 0.021757403
0.01640607 0.0819566 -0.15402333 -0.00039917557 -0.044679068 -0.011541532 0.027334273 -0.055878796
0.048318624 0.04142527 0.04680942 -0.13488477 0.028737077 0.026259981 -0.029096533 0.0042316024
-0.027396074 -0.028863473 -0.040069636 0.020787727 0.017949648 0.034343384 -0.0348092 0.00039414663
-0.08446448 -0.044336256 -0.11228289 0.01637516 0.075323276 -0.017821265 -0.01663417 -0.019979237
0.018856438 0.019033408 -0.40681955 -0.053235356 -0.037422854 0.02374508 0.059094764 -0.017024128
0.0034642022 0.007824788 0.021779053 -0.04232399 -0.011744257 -0.016462477 0.013009581 0.027995909
0.018842526 -0.07505845 0.025199424 0.0035438528 -0.08158744 -0.018583978 -0.0048897434 -0.0006253219
0.00088117825 -0.0012277777 -0.05685306 0.010133963 0.07798721 -0.09440545 -0.22821143 -0.015630156
0.07151199 0.02254593 0.053486314 0.008798251 -0.050112203 -0.06902898 -0.05814844 0.030762916
-0.16892551 -0.010439371 0.00092744443 -0.04106426 -0.054872535 -0.022622766 0.027663946 0.01605847
0.015704978 0.0074571935 -0.07144537 0.093600236 0.021828547 -0.068469 -0.14536953 0.04755881
0.02243381 0.046724536 0.008433872 0.02650737 0.020182997 0.041881245 -0.029384572 -0.00973414
0.04005431 -0.06903763 -0.06532463 0.06868712 0.009996723 0.013610041 0.028462375 0.020736359
-0.06129671 0.006593323 0.03661261 -0.11674706 -0.086081386 0.026172886 -0.037981972 0.010839654
-0.01179138 -0.111817114 0.0138063645 -0.13656086 -0.017631857 0.033871885 -0.0054216967 0.004051946
-0.015607749 0.019366998 -0.013924896 -0.007873972 0.035562534 0.0024517344 -0.07670836 0.04093259
0.0016921601 0.027732436 -0.13236782 0.024133524 0.0060182707 0.055959057 0.015632018 -0.027255928
-0.005170947 0.038924653 -0.015346972 0.011973458 0.04546048 -0.023219336 -0.099063255 0.058881793
00000000: e9f8 9ebc 2700 2ebc 1ce7 193c b77e 203d
00000010: f77a e13a 1146 54bc 3f5b d0bc 1250 f83c
00000020: fd67 9d3c cd3e 0b3d a175 d03c 929e 463d
00000030: 1d6e 8c3c c929 47bd 509f 73bd b3e4 373d
00000040: f8ea 983c b468 12be 8e90 083e 35c9 4c3d
00000050: 450b 4abb f7ab 8dbb 7389 ae3d b8a8 383b
00000060: f9a8 073c 8149 8b3c fd6a 08bb c4f6 0a3b
00000070: 98fa b33d 3fb8 28bc 95f4 09be 7db4 833d
00000080: 48a3 b93d 17fd 3f3d d965 27bd 54c9 2a3d
00000090: cc55 22bc b3f1 38bd c2e3 143b 1ed8 55bc
000000a0: 6250 9a3c 8fd1 cf3c a943 d53c a9ba 11be
000000b0: 15b7 ff3c e453 9d3c 0c59 cabd a3e5 133c
000000c0: fc17 953c 92ca 183d 29e1 a8bc ede9 3e3d
000000d0: bff5 153c 93b9 35bb 7096 09bd c4a5 a13c
000000e0: 37e1 3c3d bbe4 1ebc 0109 62bb 0a13 36bd
000000f0: 61b9 c93c bdd1 133d 2a62 943c b030 82bd
00000100: 642a 5a3a 75b2 123d 1ead 8d3b ba25 3abc
00000110: 57a2 9a3d 025e 7a3a 20a2 49be ec9a 2cbc
00000120: a5ad 1f3d ce8f 24bd d899 4abe 3be3 713d
00000130: 217f e6bd 2886 1f3b d287 dd3c bce9 d3bb
00000140: eb26 a6bd f98a 913d 5206 b13c cd6e a23c
00000150: fbd4 b73c 1d7f 68bc d79d 8ebd 462e 223d
00000160: 2dcd e13c 4f8a 15be 1b0e 903d 0a78 82bd
00000170: 66ee d83b 11f4 a0bc 90ba 973c b41a 203c
00000180: 1377 953d 2853 0abe 6ef6 3fba b970 263b
00000190: c310 1d3d 21e3 4e3e d6b3 1dbe cb02 ec3b
000001a0: c674 ddbd be62 743d cfef d33c 7b09 a7bb
000001b0: fa64 00be 19be 233c 3769 5cbe 953c b23c
000001c0: 0666 863c ddd8 a73d 4bb8 1dbe 7048 d1b9
000001d0: 6601 37bd b218 3dbc 20ec df3c 2ae1 64bd
000001e0: c0e9 453d 8bad 293d 3cbb 3f3d 3c1f 0abe
000001f0: 056a eb3c 2c1f d73c da5b eebc 41a9 8a3b
00000200: bb6d e0bc 1773 ecbc 0f20 24bd 064b aa3c
00000210: 240b 933c a6ab 0c3d 1794 0ebd 77a5 ce39
00000220: b7fb acbd ef99 35bd 92f4 e5bd 3325 863c
00000230: 1743 9a3d e7fd 91bc 6244 88bc 7fab a3bc
00000240: d178 9a3c f3eb 9b3c a74a d0be 510d 5abd
00000250: b548 19bd 0b85 c23c 5a0d 723d 2f76 8bbc
00000260: ab07 633b 8a33 003c fc69 b23c ec5b 2dbd
00000270: fc6a 40bc 51dc 86bc 2326 553c ad57 e53c
00000280: a45b 9a3c 3fb8 99bd 066f ce3c fc3f 683b
00000290: 5117 a7bd 6d3d 98bc 243a a0bb a4ec 23ba
000002a0: dffe 663a 62ed a0ba c1de 68bd ec08 263c
000002b0: c2b7 9f3d a557 c1bd 42b0 69be d00a 80bc
000002c0: e174 923d 3eb2 b83c 7714 5b3d 8a26 103c
000002d0: 7442 4dbd 115f 8dbd 0f2d 6ebd 8302 fc3c
000002e0: cffa 2cbe e509 2bbc be1f 733a ff32 28bd
000002f0: 06c2 60bd 6153 b9bc 809f e23c 0d8d 833c
00000300: baa7 803c 795b f43b f351 92bd 7bb1 bf3d
00000310: c8d1 b23c 7a39 8cbd c0db 14be 07cd 423d
00000320: 1cc7 b73c 3a62 3f3d 392e 0a3c fc25 d93c
00000330: d056 a53c ab8b 2b3d eab7 f0bc f17b 1fbc
00000340: fd0f 243d 9a63 8dbd ebc8 85bd d5ab 8c3d
00000350: 4cc9 233c a6fc 5e3c ed29 e93c 4cdf a93c
00000360: 4212 7bbd cd0c d83b 1bf7 153d 1519 efbd
00000370: 704b b0bd 8568 d63c fc92 1bbd ce98 313c
00000380: a230 41bc 5f00 e5bd 1734 623c 9cd6 0bbe
00000390: af70 90bc 3fbd 0a3d 7da8 b1bb 30c6 843b
000003a0: a5b7 7fbc 8aa7 9e3c 3f25 64bc d501 01bc
000003b0: 05aa 113d 47ad 203b 4619 9dbd eea8 273d
000003c0: 79cb dd3a 222f e33c 6e8b 07be abb3 c53c
000003d0: ea34 c53b 5335 653d b80e 803c d347 dfbc
000003e0: 0c71 a9bb 756f 1f3d de71 7bbc 532c 443c
000003f0: c534 3a3d 7a36 bebc ade1 cabd 092e 713d

fc1.bias f4 [64]
0.3269717 0.27900687 0.032391507 0.31847036 0.28506097 0.027536001 -0.009223238 0.10301397
0.35753196 0.001464486 0.070536934 0.34833783 -0.036276907 -0.041905455 -0.002543275 0.28164896
0.06827311 0.073633336 0.3085474 0.117868304 0.030898007 0.029409267 0.29628044 -0.046920978
0.28425497 0.2954942 0.071506396 0.29375345 0.34023777 0.35138905 -0.0058218795 0.02825134
0.104649544 0.3273418 0.3453407 0.03036916 0.05158832 -0.0012124872 0.31711474 -0.03358583
0.108583435 0.32669225 0.29308784 0.054627966 0.29973036 0.35463703 0.037599966 0.311762
-0.0036972004 0.31241047 0.026100194 0.32716888 0.32000795 0.023289857 0.3159427 0.30961698
0.2920158 0.035888176 0.3566073 0.2682653 0.30722964 0.32482365 0.29677597 0.34355447
00000000: d668 a73e fdd9 8e3e f5ac 043d 8c0e a33e
00000010: 83f3 913e 2e93 e13c 101d 17bc fdf8 d23d
00000020: 6e0e b73e fff3 bf3a ab75 903d 5659 b23e
00000030: 1897 14bd 0ea5 2bbd 13ad 26bb 4b34 903e
00000040: c6d2 8b3d 13cd 963d edf9 9d3e f064 f13d
00000050: d11d fd3c b4eb f03c 12b2 973e 3630 40bd
00000060: de89 913e 044b 973e f271 923d da66 963e
00000070: a533 ae3e 44e9 b33e 77c5 bebb 5b6f e73c
00000080: 8052 d63d 5899 a73e 7fd0 b03e bfc8 f83c
00000090: 464e 533d 52ec 9eba dd5c a23e 4c91 09bd
000000a0: fe60 de3d 3544 a73e 9c0f 963e 93c1 5f3d
000000b0: 4276 993e fc92 b53e 6c02 1a3d 459f 9f3e
000000c0: bb4c 72bb 44f4 9f3e 13d0 d53c ae82 a73e
000000d0: 15d8 a33e 5fca be3c 3ec3 a13e 1e86 9e3e
000000e0: 1883 953e 7bff 123d 3b95 b63e 125a 893e
000000f0: 344d 9d3e 494f a63e 05f3 973e 5fe6 af3e

fc2.weight f4 [1, 64]
0.14527053 0.115019955 -0.24919198 0.16652544 0.25151327 -0.1685283 -0.1834692 -0.22699814
0.14050822 -0.40965128 -0.21501602 0.14569311 -0.20357543 -0.5446113 -0.34153366 0.11214042
-0.1615125 -0.1660438 0.106458426 -0.15316172 -0.24997091 -0.13515249 0.06925516 -0.40602067
0.11122756 0.20485082 -0.12539642 0.10562493 0.0654291 0.23148535 -0.33911523 -0.26603353
-0.26256338 0.2630619 0.24115963 -0.27298877 -0.42750466 -0.4685029 0.07789058 -0.17428371
-0.17986672 0.20349069 0.12634394 -0.1415698 0.0846348 0.25333816 -0.291026 0.2528784
-0.25885564 0.1839538 -0.3705594 0.1616454 0.1104494 -0.28382438 0.25869322 0.17234734
0.21708074 -0.37498742 0.16487783 0.10480277 0.1981446 0.24387175 0.06792136 0.14757386
00000000: ccc1 143e 958f eb3d 2f2c 7fbe a585 2a3e
00000010: 59c6 803e af92 2cbe 5adf 3bbe 3372 68be
00000020: 63e1 0f3e d0bd d1be 292d 5cbe 9330 153e
00000030: 1476 50be a56b 0bbf 80dd aebe e0a9 e53d
00000040: 8863 25be 6307 2abe e006 da3d 6dd6 1cbe
00000050: 60f8 7fbe 6a65 0abe a6d5 8d3d f1e1 cfbe
00000060: 46cb e33d 6ac4 513e eb67 00be e251 d83d
00000070: b1ff 853d 7f0a 6d3e 83a0 adbe 8c35 88be
00000080: b56e 86be 0db0 863e 8df2 763e 2fc5 8bbe
00000090: e4e1 dabe 9ddf efbe 1985 9f3d 6e77 32be
000000a0: fb2e 38be dd5f 503e 4e60 013e acf7 10be
000000b0: 0355 ad3d 8ab5 813e 5c01 95be 4779 813e
000000c0: ba88 84be 635e 3c3e f6b9 bdbe 5f86 253e
000000d0: 4c33 e23d 6e51 91be 7073 843e d27b 303e
000000e0: 6a4a 5e3e 5afe bfbe bcd5 283e d6a2 d63d
000000f0: 6be6 4a3e 84b9 793e 5b1a 8b3d 9a1d 173e

fc3.weight f4 [2, 64]
0.018566087 -0.097095236 -0.10841124 -0.068183035 -0.012232617 0.006117642 -0.050423384 0.12054828
0.07037738 -0.115128964 0.11942969 0.07833934 -0.09269427 0.08998646 0.02600187 0.11952837
-0.054308027 0.06116475 0.043231606 0.008712679 -0.047148556 0.01874435 0.11460622 0.11415003
0.025454551 0.04669015 -0.058006182 -0.0340589 0.006492242 -0.12438126 -0.04159783 0.011034712
-0.044843584 -0.034164295 0.115020886 -0.11752081 -0.08511214 0.01190415 0.11332637 -0.08603354
-0.0106399655 0.00091704726 -0.004159555 0.09259784 0.017415062 0.07965693 0.08275244 -0.023996681
-0.09570603 -0.104363576 -0.07303122 0.018188268 0.07702778 0.12462968 -0.027668223 -0.044187233
-0.025228322 -0.0766844 -0.017565623 -0.09161101 -0.034745976 -0.050637558 0.12036094 -0.047974646
-0.10594243 -0.09906724 -0.013385668 0.110425115 0.029605865 -0.060354844 -0.09916252 0.0142006725
-0.0552326 0.077718094 -0.016364604 -0.041108117 -0.11258882 -0.099467635 0.06915733 0.06103404
0.026410311 -0.08210157 0.018649235 -0.095210195 0.059120774 -0.0016974658 0.023955464 0.062564746
-0.032708913 -0.10275288 0.07026154 -0.045995206 0.019548893 -0.112266436 -0.11965406 0.013723016
-0.086067095 0.089459985 -0.06313516 -0.12080857 -0.089321956 0.11894351 -0.025019094 -0.10398719
-0.020756915 0.12391865 0.098809004 0.11338897 -0.08819279 0.013447598 -0.00045065582 -0.124104545
0.10566588 -0.041622162 0.06520058 -0.09522535 0.005986482 -0.10036717 -0.038079828 -0.005342096
-0.0699534 -0.038101405 0.07333392 -0.08561216 -0.08796117 0.10456562 0.12420249 0.025062785
00000000: e817 983c ded9 c6bd b606 debd 8ca3 8bbd
00000010: 506b 48bc 8076 c83b c088 4ebd 04e2 f63d
00000020: 0422 903d bcc8 ebbd 8e97 f43d 6070 a03d
00000030: 7ed6 bdbd d24a b83d e001 d53c 4acb f43d
00000040: 1872 5ebd e487 7a3d a013 313d a0bf 0e3c
00000050: d81e 41bd c08d 993c aab6 ea3d 7ec7 e93d
00000060: 1086 d03c 2c3e 3f3d e497 6dbd 5881 0bbd
00000070: e0bc d43b 9abb febd 7c62 2abd f0ca 343c
00000080: e8ad 37bd dcef 0bbd 1290 eb3d c0ae f0bd
00000090: 464f aebd a009 433c a817 e83d 5a32 b0bd
000000a0: 4053 2ebc 0066 703a e04c 88bb f0a3 bd3d
000000b0: 08aa 8e3c 2c23 a33d 1c7a a93d b094 c4bc
000000c0: 8601 c4bd 92bc d5bd 6491 95bd 90ff 943c
000000d0: bec0 9d3d d83d ff3d 78a8 e2bc acfd 34bd
000000e0: a0ab cebc b60c 9dbd c8e5 8fbc 8e9e bbbd
000000f0: cc51 0ebd 5469 4fbd cc7f f63d 1081 44bd
00000100: 58f8 d8bd c4e3 cabd 904f 5bbc 9026 e23d
00000110: 0088 f23c a436 77bd b815 cbbd f0a9 683c
00000120: 943b 62bd aa2a 9f3d 100f 86bc fc60 28bd
00000130: f894 e6bd b0b5 cbbd 5ca2 8d3d d4fe 793d
00000140: 705a d83c de24 a8bd 48c6 983c 90fd c2bd
00000150: a028 723d 807d deba 403e c43c f221 803d
00000160: c8f9 05bd 1a70 d2bd 48e5 8f3d 7865 3cbd
00000170: 0025 a03c f2eb e5bd 300d f5bd 80d6 603c
00000180: f243 b0bd cc36 b73d 024d 81bd 7c6a f7bd
00000190: 6eee b6bd a898 f33d d8f4 ccbc 3cf7 d4bd
000001a0: 680a aabc 10c9 fd3d 605c ca3d 7a38 e83d
000001b0: 6c9e b4bd 5053 5c3c 0046 ecb9 862a febd
000001c0: 5a67 d83d 007c 2abd e287 853d 8205 c3bd
000001d0: 402a c43b 4e8d cdbd 98f9 1bbd c00c afbb
000001e0: ba43 8fbd 3810 1cbd 1830 963d 6e55 afbd
000001f0: fc24 b4bd 8026 d63d e05d fe3d 7850 cd3c

fc3.bias f4 [2]
0.06412409 -0.016921848
00000000: 7e53 833d b09f 8abc
